Algorand/model.pt (torch, 3837 bytes, 6 tensors)

conv1.lin_l.weight f4 [16, 5]
000000 27 d6 81 3e fe a6 4b bd 1d 1d 25 3e ae e1 73 be
       0.25358698 -0.049719803 0.16124387 -0.23816559
000010 96 32 cf 3e 63 2b 61 be a6 2f 16 be 07 5a 20 3d
       0.40468282 -0.21989207 -0.14666614 0.039148357
000020 94 84 ba be 15 df 14 be a3 4a fe 3e 5e 3f 18 3e
       -0.36429274 -0.14538224 0.49666318 0.14867923
000030 42 87 ce 3d 29 c9 1f be 1a 5a 84 be 80 b0 92 bb
       0.10084392 -0.1560408 -0.25849992 -0.004476607
000040 70 a3 b1 be da ee 02 be 8c 4c a3 3e 3c a4 da 3e
       -0.34695005 -0.12786427 0.31894338 0.42703426
000050 ba 4d 85 3e 40 57 16 3e 84 f0 9b be 90 b0 be 3d
       0.26035863 0.1468172 -0.30456936 0.093110204
000060 b2 99 c5 3e 00 d4 d6 39 6a 71 68 be a0 5d aa be
       0.38593823 0.00040975213 -0.22699514 -0.33274555
000070 ac 23 93 3e 58 a2 a8 3e ca f1 bc be ff d6 91 be
       0.28738153 0.32936358 -0.3690322 -0.28484342
000080 d4 9e 22 3e a6 df 62 bc 1c 09 a5 3e 21 15 e0 be
       0.158809 -0.013847267 0.32233512 -0.4376612
000090 f8 02 fb bd c9 a5 c6 3c 92 0b 0f bc 5d 67 ec bc
       -0.122564256 0.024248974 -0.008730786 -0.028857881
0000a0 41 b2 08 be e2 7b dd bd 64 21 82 bc 69 a7 9f be
       -0.13349248 -0.108146444 -0.015885063 -0.3118241
0000b0 15 d1 b0 be 7d 8f ec be 13 14 19 bf 0a d9 21 be
       -0.34534517 -0.46203223 -0.59796256 -0.1580545
0000c0 3f 6b 10 be ba 3e 00 bf 42 81 5e be 66 59 90 3e
       -0.14103411 -0.50095713 -0.21728995 0.28193206
0000d0 73 02 af be 08 5d b4 3d 1d 6c af be 4c b2 0a bf
       -0.34181556 0.08806807 -0.3426217 -0.5417831
0000e0 e8 7d 0a 3e 8d 70 a4 be c1 f9 0e bf e3 ee 8b 3d
       0.13524592 -0.3211712 -0.55849844 0.068326734
0000f0 b2 54 2b be 34 61 dc be 6c 3e 4b be 2a 2c 83 be
       -0.16731527 -0.4304291 -0.19848031 -0.25619632
000100 f0 2b ae be 4b 3c c9 be bb 0b e5 be c8 da bb 3e
       -0.34017897 -0.39303812 -0.44735512 0.36690354
000110 51 b7 d9 be d8 6a e8 3d e8 44 71 be 5b a8 cb 3e
       -0.42522672 0.11348504 -0.23561442 0.39776883
000120 8e 78 e4 3e 4f 4c e7 3e 32 2c 8a be d2 6a b9 3e
       0.44623226 0.45175406 -0.26986843 0.3621431
000130 7c c1 98 3e e6 84 b3 be e4 b3 ba be 48 23 79 3e
       0.29835117 -0.3506233 -0.3646537 0.24329865

conv1.lin_l.bias f4 [16]
000000 0e 99 25 be a3 df 31 be 24 a9 3d bd 1e 76 24 3e
       -0.16171667 -0.17370467 -0.046303883 0.16060683
000010 07 55 8a bd 40 23 53 3e 98 4d a0 3d a9 62 42 3d
       -0.06754499 0.20618916 0.078273 0.04745737
000020 53 61 60 be 8c 59 26 3e ec 05 cb bd d2 5e a2 bd
       -0.21912126 0.16245097 -0.09913239 -0.07928242
000030 28 f7 9f bd 8c cd d7 be bf a6 97 be 9c 2b 6d 3e
       -0.07810813 -0.42149007 -0.29619405 0.23161167

conv1.lin_r.weight f4 [16, 5]
000000 73 21 1a bd a0 e2 c1 3d 7a 0f 02 3e da e7 b9 be
       -0.037629556 0.094670534 0.12701216 -0.363097
000010 b8 62 85 be 91 03 55 3e da c7 a5 3d d8 1f 9e 3a
       -0.2605188 0.20802142 0.08094759 0.0012063934
000020 45 53 60 3e 8c 24 8b be c9 3c 0c be 4e 43 84 3e
       0.21906765 -0.2717632 -0.13695063 0.258326
000030 37 1f 94 3d 0d 72 bc be d0 33 3a 3e c8 87 e3 3d
       0.07232516 -0.36805764 0.18183827 0.111098826
000040 62 02 cf be 1c 7b dc bd 43 ab fa 3e f3 f4 23 bd
       -0.40431505 -0.10765669 0.48958787 -0.040028524
000050 29 64 a4 3e 90 d9 91 bd a2 b2 6c be 9d 7b 3a 3e
       0.32107666 -0.07121575 -0.23115018 0.18211217
000060 b9 b9 53 be 10 c8 90 be f0 fc bb 3d 73 8d e4 be
       -0.20676316 -0.28277636 0.091791034 -0.44639167
000070 08 29 12 be 26 46 8c 3e 31 7a 38 be cb 3e 2a bc
       -0.14273465 0.2739727 -0.18015362 -0.010390948
000080 bf 78 98 3e 1e 24 b4 3e 2a 42 0c be 16 3d 7a bd
       0.29779622 0.35183805 -0.13697115 -0.061093412
000090 34 b3 a5 be 20 60 93 3e b7 50 25 be f0 9d ef bd
       -0.32363284 0.28784275 -0.16144072 -0.11700046
0000a0 94 40 17 3f 8f 6b ef be 20 2d 94 3e 42 dc 92 3d
       0.59082913 -0.46761748 0.28940678 0.07170917
0000b0 3a a7 18 3e 14 f1 9b be d0 9f a6 be e7 ca 09 3e
       0.14907542 -0.30457366 -0.32543802 0.13456307
0000c0 93 08 f2 3d 06 b6 a0 be fe fe 35 3e 69 b0 0b 3e
       0.11818042 -0.31388873 0.17773053 0.13641514
0000d0 c1 28 a5 3d 99 f6 9a 3d c6 90 15 be fa 3f 48 3e
       0.08064414 0.07566566 -0.14606008 0.19555655
0000e0 14 5b 0f 3e 92 6b 7b 3e 4d 1a ae bd 44 36 99 3e
       0.13999587 0.24552754 -0.0850111 0.29924214
0000f0 93 4a cf be f0 f4 44 3e 5c f1 97 be 80 62 de 3d
       -0.40486583 0.19234061 -0.2967633 0.10858631
000100 bb a0 95 be e1 6a 3a be 18 74 ab 3d b2 b2 48 be
       -0.2922419 -0.18204834 0.083717525 -0.19599417
000110 83 4d c5 be c8 fc 84 3e 33 bc 35 be 5c e2 b8 3e
       -0.385357 0.25974107 -0.17747574 0.36110198
000120 c0 9c 04 be 76 50 b7 3e 04 8d db bd 50 13 9d 3c
       -0.1295042 0.35803574 -0.10720256 0.019174248
000130 64 6e a1 be c0 52 a4 3b 3e 8e bf be 88 c3 ad be
       -0.31529534 0.0050147474 -0.3741321 -0.3393824

conv2.lin_l.weight f4 [2, 16]
000000 49 a9 d3 3e c1 64 06 be d4 93 92 3e d5 e3 e7 3d
       0.41340092 -0.13124372 0.2862841 0.113227524
000010 6f a2 0c be 48 9f 41 3e 41 6b 68 3e d1 31 ad 3e
       -0.13733838 0.18908417 0.22697164 0.3382707
000020 b6 34 d6 3e a0 ad 09 be de 98 94 3e 55 f1 ff 3d
       0.4183709 -0.13445139 0.29022878 0.12497202
000030 96 b0 4d 3e f8 d6 97 3d 16 5b 70 be 08 47 ca 3d
       0.20086893 0.07414049 -0.23472247 0.098768294
000040 b8 fe 15 be 03 1a d3 3d 2c bf e1 be e1 5c 9b be
       -0.14647949 0.10307696 -0.44091165 -0.30344298
000050 87 ef c3 bc 60 5e 4c 3c e3 9e 37 bd 8a 9c 91 be
       -0.023917926 0.012473673 -0.04482926 -0.28439742
000060 7c 6b 91 be d3 31 08 be 4f fb 0e be 39 c6 47 3d
       -0.28402317 -0.13300256 -0.13963054 0.048773024
000070 3c 6a cb bd 70 ff fb 3c 1e 56 09 3e f8 6c d8 bd
       -0.09932372 0.03076145 0.13411757 -0.10567659

conv2.lin_l.bias f4 [2]
000000 1b 25 c3 bd ed 05 d9 3d
       -0.09528562 0.105968334

conv2.lin_r.weight f4 [2, 16]
000000 3e fc a4 bd e2 3d 60 be e7 bc 38 3d 02 f8 d6 bd
       -0.08055924 -0.21898606 0.045102026 -0.104965225
000010 d5 e8 f3 bd e0 2d 0e 3c 4f 68 52 3d 41 97 c5 3a
       -0.119096436 0.00867793 0.051369008 0.0015074984
000020 95 87 be bd d7 03 88 3d 4e 57 1a be d3 b5 0f 3e
       -0.09303204 0.066413574 -0.15072367 0.14034204
000030 aa c8 75 3e 3c 25 73 3e 4b 62 66 3d 60 18 73 3d
       0.24002329 0.23744673 0.056246083 0.059349418
000040 2f 94 cc bd c0 98 18 be 13 72 1e bb b9 69 36 3e
       -0.09989201 -0.1490202 -0.002417688 0.17813767
000050 a6 99 cf bc b0 ba 33 3e 8b a2 7a 3d a0 b5 a1 3a
       -0.02534182 0.17551684 0.06119017 0.0012337454
000060 f3 f2 b6 bd 2d 7d 17 3e 43 fc 12 bb 9d 9d 2b 3e
       -0.08933058 0.14793845 -0.0022428192 0.16759343
000070 40 b9 4c 3e c4 65 02 3e 1a bf 45 be fc 2b dd bd
       0.19992542 0.12734133 -0.1931118 -0.10799405
